…
 of layers and\nnodes are built in a reverse order and eventually an output shape with one column is produced. The total\nnumber of trained parameters is 12, 805, which implies creating a fully connected network.\n3Yahoo Finance (https://ﬁnance.yahoo.com/) was used to draw the charts.\n20\nFig. 5. KMeans clustering: Cluster ”0”\n Fig. 6. KMeans clustering: Cluster ”1”\nFig. 7. KMeans clustering: Cluster ”3”\n Fig. 8. KMeans clustering: Cluster ”2”\nTABLE II\nTHE INPUT AND OUTPUT SHAPES ALONG WITH THE NUMBER OF PARAMETERS TRAINED .\nLayer (Type) Output Shape Parameter#\n1 Input 1 (Input Layer) (None, 2) 0\n2 dense 1 (Dense) (None, 100) 300\n3 dense 2 (Dense) (None, 50) 5,050\n4 dense 3 (Dense) (None, 20) 1,020\n5 dense 4 (Dense) (None, 4) 84\n6 dense 5 (Dense) (None, 20) 100\n7 dense 6 (Dense) (None, 50) 1,050\n8 dense 7 (Dense) (None, 100) 5,100\n9 dense 8 (Dense) (None, 1) 101\nTotal Trainable Parameters 12,805\nWe trained the model with different number of repetition (i.e., epoch) in order to understand the\nperformance of estimating the parameter values in details. We repeated the training model for 1000\nepochs. Figure 13 illustrates the relationship between number of epochs and the error (i.e., loss). As the\nﬁgure indicates, the loss value is approximately zero wh
…
